ac.pth (torch, 42375 bytes, 7 tensors)

fc1.weight f4 [128, 10]
0	0xbe9eec3e	-0.31039613
1	0x3d5a20ee	0.05325406
2	0xbea0602d	-0.31323376
3	0xbd64aca0	-0.05582869
4	0x3e8163fd	0.25271598
5	0x3e8540b1	0.26025918
6	0x3e84b529	0.25919464
7	0xbe8871d5	-0.26649347
8	0x3e2ccf86	0.16876039
9	0xbda43257	-0.08017414
10	0x3c5ddce9	0.013541439
11	0xbd9cfc4e	-0.07665311
12	0xbd9f360d	-0.07773981
13	0x3e595f09	0.2122766
14	0x3e7a408d	0.24438687
15	0xbe8e2c4f	-0.2776818
16	0x3e99f48b	0.30069384
17	0xbdb02b03	-0.08601954
18	0x3e4c0bd8	0.19926393
19	0xbbc6fc5a	-0.006072563
20	0xbe8e03f2	-0.27737385
21	0xbe6cb09a	-0.23114243
22	0x3e179ec2	0.14806655
23	0x3db77f8f	0.08959877
24	0x3e4b4fff	0.19854735
25	0x3e4e31c4	0.20136172
26	0x3e03df9d	0.1287827
27	0xbdc15cc9	-0.094415255
28	0x3e3a2d0b	0.18181245
29	0x3e2db943	0.16965203
30	0xbe021f30	-0.1270721
31	0xbd28fea3	-0.041258465
32	0xbe345a7b	-0.1761264
33	0x3e96de99	0.29466704
34	0xbea26303	-0.31716165
35	0x3d6456ee	0.055746965
36	0xbbe34e57	-0.006936829
37	0xbd58cd9a	-0.052930452
38	0x3e4d2031	0.20031811
39	0x3e8f1d4f	0.27952048
40	0xbe79ee5a	-0.2440733
41	0x3e832fef	0.25622508
42	0xbcc5ba35	-0.024136642
43	0x3da96284	0.082707435
44	0xbd41e944	-0.0473416
45	0x3e0e9214	0.13922912
46	0xbe70eb4d	-0.2352726
47	0x3e909876	0.28241318
48	0x3e43cb43	0.19120507
49	0x3de1c3d3	0.11023679
50	0xbd632e2a	-0.055463947
51	0xbd84bd79	-0.064814515
52	0x3d7460df	0.059662696
53	0xbe9d8cf4	-0.307716
54	0x3e4e8796	0.2016891
55	0x3e1b3ab0	0.15159106
56	0x3e7be503	0.2459908
57	0xbe92d09d	-0.28674784
58	0xbdae93bd	-0.085242726
59	0x3d330ec9	0.043715272
60	0xbe0f2f67	-0.13982926
61	0xbd0a1571	-0.033711854
62	0x3e8584b3	0.26077804
63	0xbe37d395	-0.17951806
64	0x3e95ec9e	0.29282087
65	0x3e33735b	0.17524473
66	0x3c823f22	0.015899245
67	0xbb13042a	-0.0022432902
68	0xbd266c24	-0.040630475
69	0x3c7c97fe	0.015417097
70	0xbe3f5923	-0.18686347
71	0x3d9cf908	0.076646864
72	0x3d0e67bb	0.034766894
73	0xbc263a03	-0.010145667
74	0xbd6ae362	-0.057345755
75	0x3e76640e	0.24061605
76	0xbd899dd5	-0.06719557
77	0x3e4c3e20	0.19945574
78	0x3e83b550	0.25724268
79	0x3e98fe66	0.2988159
80	0x3df03558	0.117289245
81	0xbe4a03f9	-0.19728078
82	0x3d3cc43a	0.046085574
83	0xbd2177c0	-0.039420843
84	0x3d7b2a02	0.06131936
85	0xbdde9f17	-0.10870188
86	0xbdb7301c	-0.08944723
87	0xbe87dece	-0.26537174
88	0xbddfb67d	-0.10923479
89	0x3e65df93	0.22448568
90	0x3de700d4	0.11279455
91	0xbe581e3c	-0.21105283
92	0xbd0ddd3b	-0.03463481
93	0x3e6ee27f	0.23328589
94	0x3d81f1e2	0.063449636
95	0x3e623d68	0.22093737
96	0xbdc17b9b	-0.09447404
97	0xbe80e2be	-0.2517299
98	0xbe846855	-0.2586085
99	0x3e976067	0.29565737
100	0xbe4ab58f	-0.19795822
101	0x3e44b4e4	0.1920963
102	0x3acdbf39	0.0015697248
103	0xbe976c92	-0.2957502
104	0x3ea94dae	0.33067077
105	0x3bb26aef	0.0054448764
106	0xbc3721d7	-0.011177502
107	0x3e844299	0.2583206
108	0x3d572887	0.052528884
109	0xbdbb924b	-0.091587625
110	0xbd680ae0	-0.056650996
111	0xbd2cf905	-0.04222967
112	0xbd2b923c	-0.041887507
113	0xbe5dba57	-0.21653114
114	0x3e2c7598	0.16841733
115	0x3de1de6f	0.11028754
116	0xbdb0fdd4	-0.08642164
117	0x3d977476	0.0739526
118	0x3e9db4ca	0.30801994
119	0x3c9ddff7	0.019271834
120	0xbe2af718	-0.16695821
121	0x3e574364	0.21021801
122	0x3e662ec4	0.22478777
123	0xbe3444fd	-0.17604442
124	0x3d946732	0.072462454
125	0xbe7096cb	-0.23495023
126	0xbe34c6e9	-0.17654003
127	0x3e8bd16b	0.2730821
128	0x3e80d08a	0.25159103
129	0xbe6be815	-0.23037751
130	0x3d85850b	0.065195166
131	0xbe0e5c00	-0.13902283
132	0x3e557c7b	0.20848267
133	0xbd87471a	-0.066053584
134	0xbe27be56	-0.16381201
135	0x3e912898	0.28351283
136	0x3e7a9bd8	0.24473512
137	0xbe79fe52	-0.24413422
138	0xbe7ded36	-0.2479752
139	0x3e875e19	0.26438978
140	0xbdf595cc	-0.11991462
141	0x3e98419a	0.2973755
142	0xbe27264d	-0.16323204
143	0xbe9f93e9	-0.31167534
144	0xbe8b94ad	-0.27261868
145	0x3e94d848	0.2907126
146	0xbe9e13a6	-0.30874366
147	0x3d8dd101	0.0692463
148	0xbe8ae5b5	-0.27128378
149	0xbe662b50	-0.2247746
150	0xbe4c6647	-0.1996089
151	0xbe124641	-0.14284612
152	0xbc985a8f	-0.01859787
153	0xbe62eec2	-0.22161391
154	0xbe083528	-0.13301528
155	0xbe11911c	-0.14215511
156	0x3e2b1749	0.16708101
157	0x3e97ec52	0.29672486
158	0x3e78f9e8	0.24314082
159	0x3dd6107e	0.104523644
160	0x3ea6616c	0.32496202
161	0x3e9842f5	0.29738584
162	0xbe7dc46c	-0.2478196
163	0x3dac7733	0.08421173
164	0x3dbd66d5	0.09248129
165	0x3e12628c	0.14295405
166	0x3e811b86	0.2521631
167	0x3d7da8f7	0.061928716
168	0x3dc886cd	0.09791336
169	0x3e931c58	0.28732562
170	0x3e30b78e	0.1725752
171	0x3db6443d	0.08899734
172	0xbd202de3	-0.03910626
173	0x3e2e33a0	0.17011881
174	0xbe7f56fd	-0.24935527
175	0x3e840f96	0.2579314
176	0x3e292278	0.16517055
177	0xbd2498f4	-0.04018493
178	0xbceda14a	-0.029007573
179	0xbe0c7f9e	-0.13720557
180	0x3e97aa20	0.29621983
181	0xbe3b27a6	-0.18276843
182	0xbe9397fd	-0.28826895
183	0xbe18fe83	-0.14940839
184	0xbe813aa0	-0.2524004
185	0x3baf6522	0.005352632
186	0xbda1e701	-0.079053886
187	0xbe3d86f7	-0.18508516
188	0xbe0d647f	-0.13807867
189	0xbe33ff65	-0.17577894
190	0x3cf02a46	0.029317033
191	0x3e2d24e2	0.16908601
192	0x3e9e733a	0.30947286
193	0x3c2f86c3	0.010713282
194	0xbe5542e4	-0.20826298
195	0xbe872822	-0.26397806
196	0x3e75481d	0.2395329
197	0x3dadc794	0.08485332
198	0x3e9daf28	0.30797696
199	0xbe937f13	-0.28807887
200	0x3e9dd698	0.30827785
201	0x3d89b435	0.06723825
202	0xbba9e6f8	-0.0051850043
203	0xbe608583	-0.2192593
204	0x3e0d8f70	0.13824248
205	0xbe142dc9	-0.1447059
206	0xbdfed3f1	-0.12442768
207	0x3e83fb11	0.25777486
208	0xbe5f7d70	-0.21825194
209	0x3e3b48b3	0.18289451
210	0x3e113577	0.14180551
211	0xbc5cda24	-0.013479743
212	0x3e5da5ce	0.2164528
213	0xbe1986ae	-0.14992782
214	0xbd37bd8e	-0.044858508
215	0xbcc8ea0b	-0.024525663
216	0xbe552b75	-0.20817359
217	0x3cf00cbf	0.029302953
218	0x3d9934c5	0.07480768
219	0x3d550f67	0.052016642
220	0x3e88c830	0.2671523
221	0xbe05a7b7	-0.1305226
222	0x3e46cc71	0.19413926
223	0x3d853953	0.06505074
224	0xbea06a86	-0.3133127
225	0xbe7622b2	-0.24036673
226	0xbe74152f	-0.23836206
227	0x3e8c5fbf	0.27416798
228	0xbd66ff44	-0.056395784
229	0xbe96592c	-0.29364908
230	0x3da4444d	0.0802084
231	0x3c30322b	0.0107541485
232	0xbe7dbee2	-0.24779847
233	0xbe75ff1d	-0.24023099
234	0x3e096cc7	0.13420402
235	0x3e914498	0.28372645
236	0x3d813289	0.06308467
237	0x3ddda47e	0.1082239
238	0x3ce89b7d	0.028394455
239	0x3de48356	0.11157863
240	0xbe298a0b	-0.16556565
241	0x3e1d80cd	0.15381165
242	0xbea556e8	-0.32292867
243	0x3e1a6f28	0.15081465
244	0x3e565e83	0.20934491
245	0xbe8874ea	-0.26651698
246	0x3dcdab68	0.10042459
247	0x3e642615	0.22280152
248	0xbdd51a59	-0.10405416
249	0x3e97654b	0.29569468
250	0x3dae5de2	0.085140005
251	0x3cba9f23	0.02278096
252	0xbe611b07	-0.21982966
253	0xbdf570ea	-0.11984427
254	0xbe62767e	-0.22115514
255	0xbe6c4e2f	-0.230767

fc1.bias f4 [128]
0	0xbe5f231b	-0.21790735
1	0x3e8fd7a5	0.2809421
2	0xbca30279	-0.01989864
3	0xbea0ebe3	-0.31429967
4	0x3e75d42f	0.24006723
5	0x3e1b928d	0.15192623
6	0xbe848372	-0.25881535
7	0xbd919906	-0.07109265
8	0x3e4ae8fc	0.19815439
9	0x3dfd9393	0.12381663
10	0x3e6b9458	0.23005807
11	0xbdd24138	-0.10266346
12	0xbe2f5543	-0.17122369
13	0xbe64625d	-0.22303148
14	0xbe9ae747	-0.30254576
15	0xbdfcffd0	-0.1235348
16	0x3d4bc495	0.049748022
17	0xbe0de962	-0.1385856
18	0x3e81a58b	0.25321612
19	0xbe5555a8	-0.20833457
20	0x3ea51e8f	0.32249877
21	0x3e5d1a5e	0.2159209
22	0xbc8d0259	-0.017213034
23	0x3d9ba5f0	0.076000094
24	0xbe0ac72f	-0.13552545
25	0xbc756161	-0.01497683
26	0x3beab925	0.007163184
27	0xbe1c3c5d	-0.15257402
28	0x3d9df08a	0.07711895
29	0x3e2cb4db	0.16865866
30	0x3d55207b	0.05203293
31	0x3ea923f0	0.3303523
32	0xbe903763	-0.28167257
33	0xbe0c7557	-0.13716637
34	0xbd868fdb	-0.06570407
35	0xbe9a3727	-0.30120203
36	0xbe52e9b6	-0.20596966
37	0xbe10d568	-0.14143908
38	0xbdda273a	-0.10652013
39	0xbe47828a	-0.1948339
40	0xbe1eb736	-0.15499577
41	0xbdb8157d	-0.089884736
42	0x3d9d5f7d	0.076842286
43	0x3e78d289	0.24299063
44	0xbe023bc4	-0.12718111
45	0x3e12649b	0.1429619
46	0xbde1708e	-0.11007796
47	0x3ea1324c	0.31483686
48	0xbe066761	-0.13125373
49	0x3e131fcf	0.14367603
50	0x3ea98520	0.3310938
51	0x3e91480c	0.2837528
52	0xbe56461f	-0.20925187
53	0xbd6833dd	-0.056690086
54	0x3e8225a0	0.2541933
55	0x3db2c4bd	0.08728931
56	0x3d93a004	0.07208255
57	0xbcc1f81f	-0.023677884
58	0x3e961589	0.29313305
59	0xbe9936c0	-0.29924583
60	0x3d9c79c1	0.0764041
61	0x3e0809de	0.13285014
62	0x3e76bbb5	0.24095042
63	0x3e837624	0.25676072
64	0xbe77d14f	-0.24200939
65	0xbe4eeb82	-0.20207027
66	0x3e81e8b7	0.2537286
67	0xbdde499a	-0.10853882
68	0xbe98a380	-0.2981224
69	0x3e2e5fb7	0.170287
70	0xbe1b3b22	-0.15159276
71	0xbe5e6a01	-0.21720125
72	0x3d941836	0.0723118
73	0xbd84406e	-0.064576015
74	0x3e9ba381	0.3039818
75	0xbdbf612b	-0.09344705
76	0xbd14897b	-0.036263924
77	0xbdf2a64f	-0.11848127
78	0xbd3e3dce	-0.04644566
79	0xbe93cdc2	-0.28867918
80	0xbe5725b7	-0.21010481
81	0xbde76331	-0.11298216
82	0xbe3955e8	-0.18099177
83	0xbbf52a5b	-0.007481856
84	0x3e8e03da	0.27737314
85	0x3e66cb9e	0.22538611
86	0xbe637cf8	-0.2221564
87	0x3ea2f8cb	0.3183044
88	0x3ea17f28	0.31542325
89	0xbe32df57	-0.1746801
90	0xbe2464b5	-0.16054042
91	0xbc5846aa	-0.013200441
92	0x3e0052fb	0.12531655
93	0x3db9dc3e	0.09075211
94	0xbd305854	-0.043052986
95	0xbc9514a1	-0.018198313
96	0x3d17383d	0.036918867
97	0xbe963dab	-0.29343924
98	0x3d060b3c	0.032725558
99	0x3dff8604	0.12476733
100	0x3d8ab38a	0.067725256
101	0xbe40c084	-0.18823439
102	0x3cba2afb	0.022725573
103	0xbde4ecdc	-0.1117799
104	0xbb58237b	-0.0032980132
105	0x3e4a5783	0.19759946
106	0x3d94ae92	0.07259859
107	0xbe474372	-0.19459322
108	0x3ea6615b	0.3249615
109	0x3e606dd1	0.21916892
110	0x3c976a9c	0.018483452
111	0xbe4c885a	-0.19973889
112	0xbdfff74b	-0.12498339
113	0x3e962b16	0.29329747
114	0xbe5f22eb	-0.21790664
115	0xbe779a60	-0.24179983
116	0xbe44b841	-0.19210912
117	0xbd10f842	-0.035393007
118	0xbe739818	-0.23788488
119	0x3e5a123f	0.21296023
120	0x3e5817e9	0.21102871
121	0x3d8cce8c	0.06875333
122	0x3db5b696	0.08872716
123	0x3cfde96e	0.030995097
124	0x3d946ac7	0.07246929
125	0xbe714a3b	-0.23563473
126	0x3ea78497	0.32718346
127	0x3deb057a	0.11475654

fc2.weight f4 [64, 128]
0	0xbc8e4b83	-0.017369991
1	0x3da41088	0.080109656
2	0x3be0714c	0.0068494435
3	0xbd1a9a8b	-0.03774504
4	0xbd05d706	-0.032675765
5	0xbcf1954a	-0.029490132
6	0x3d1317d2	0.03591139
7	0xbd1daf41	-0.038497213
8	0x3c0908c4	0.008363906
9	0x3d9f5380	0.07779598
10	0xbb111941	-0.0022140297
11	0x3c0e6014	0.008689899
12	0x3d8a65c1	0.06757689
13	0x3c99c157	0.01876895
14	0xbd7791ba	-0.06044171
15	0x3da47b0e	0.08031283
16	0x3d707a59	0.05871043
17	0xbca16d87	-0.019705547
18	0x3d81a0b1	0.063294776
19	0xbda97574	-0.082743555
20	0x3d53d3d0	0.051715672
21	0x3d74efff	0.05979919
22	0x3a131d37	0.00056119583
23	0xbdaf1fea	-0.08551009
24	0xbdaba23c	-0.08380553
25	0x3c0667fe	0.008203505
26	0xbca5ce52	-0.020239983
27	0xbcf1584b	-0.029461047
28	0xbcbc7b8d	-0.023008132
29	0xbd0c9f96	-0.03433188
30	0x3d90233f	0.07037973
31	0xbd37106a	-0.044693388
32	0x3da0ab16	0.07845132
33	0x3d1f0c83	0.03883029
34	0xbda6bc4a	-0.08141382
35	0x3d9221d1	0.07135356
36	0xb9a9d695	-0.00032394068
37	0xbc34f948	-0.011045761
38	0xbd735372	-0.05940575
39	0xbb360bfe	-0.0027778144
40	0x3d6cee5c	0.057844505
41	0x3d80fe4b	0.062985025
42	0xbdae3084	-0.08505347
43	0x3d4fd364	0.050738707
44	0x3d190546	0.037358545
45	0xbd9d161b	-0.07670232
46	0x3da63efa	0.081174806
47	0x3bfca24c	0.007709777
48	0xbcd105f4	-0.025515534
49	0x3c196b1f	0.009363919
50	0xbd1b10b0	-0.03785771
51	0xbd0dcda8	-0.034619957
52	0xbbd74858	-0.0065699033
53	0xbdad738b	-0.08469304
54	0x3d916ba7	0.07100611
55	0xbcf07062	-0.029350463
56	0xbc71dad8	-0.014761649
57	0x3d72802f	0.059204277
58	0xbd2d5354	-0.042315796
59	0xbbd8fd3f	-0.006621986
60	0xbd10cd96	-0.035352312
61	0xbd545be6	-0.051845454
62	0xbd952c0a	-0.072837904
63	0xbc7e6ade	-0.015528409
64	0xbdbcc482	-0.092171684
65	0xbd31a27a	-0.04336784
66	0x3d5996a7	0.05312219
67	0x3cc20c2c	0.023687445
68	0x3cd9b600	0.026576042
69	0xbd88e2e6	-0.066839024
70	0xbda00a45	-0.07814459
71	0xbd2698ec	-0.04067318
72	0x3da372b3	0.079808615
73	0xbd8a020a	-0.0673867
74	0xbc0a436a	-0.008438924
75	0xbc74b562	-0.014935823
76	0x3da9d4df	0.08292555
77	0x3a870167	0.00103001
78	0xbd5d6592	-0.054051943
79	0xbd5ceccf	-0.053936776
80	0x3d9d419e	0.07678531
81	0x3d806a86	0.06270318
82	0xbd924c05	-0.07143406
83	0xbd8e0a78	-0.069355905
84	0x3d1e9dad	0.03872459
85	0xbd98056e	-0.07422911
86	0x3c2e84d1	0.010651783
87	0xbc345dbb	-0.011008675
88	0x3bb7d0d8	0.005609613
89	0x3d113859	0.035454128
90	0x3d12cb08	0.035838157
91	0x3d994301	0.07483483
92	0xbd66fdb4	-0.056394294
93	0x3ca07393	0.01958636
94	0xbc609b7e	-0.013708947
95	0xbb340dd8	-0.0027474072
96	0xbcbfa8a6	-0.023395848
97	0x3d38cc34	0.04511662
98	0xbd3705f4	-0.04468341
99	0xbda6a173	-0.08136263
100	0x3d5979f8	0.053094834
101	0x3c8f5a61	0.01749915
102	0xbd2b8cc2	-0.041882284
103	0x3c942b01	0.018086912
104	0xbd862326	-0.06549673
105	0x3da372c8	0.07980877
106	0xbcf5c1c4	-0.029999621
107	0xbd81b053	-0.06332459
108	0x3ccb24c1	0.024797799
109	0xbd0a1cb0	-0.033718765
110	0xbd41c8b3	-0.047310542
111	0xbcb66506	-0.022264969
112	0xbcccdc3b	-0.025007358
113	0xbc7860bc	-0.015159782
114	0x3c41f953	0.011839229
115	0xbd27e1a4	-0.040986672
116	0x3d2b0cfc	0.04176043
117	0xbd4f238d	-0.050571013
118	0xbd339139	-0.043839667
119	0x3ced9699	0.029002475
120	0xbd876adf	-0.06612181
121	0x3c8eb803	0.017421728
122	0xbd5898c6	-0.05288007
123	0xbc93e20e	-0.018052127
124	0xbcfbacad	-0.030721987
125	0x3d97dd0c	0.07415208
126	0xbd9cdd36	-0.0765938
127	0xbd299d87	-0.041409995
128	0x3bb4836d	0.0055088312
129	0x3d724cbe	0.05915522
130	0xbd61d8fa	-0.055138566
131	0xbc04be61	-0.0081020305
132	0xbcb4b414	-0.022058524
133	0x3c9cd49c	0.019144349
134	0x3ce64488	0.02810885
135	0x3da7c63b	0.08192106
136	0x3d6a491e	0.057198636
137	0x3d825084	0.063630134
138	0x3db99b19	0.09062786
139	0x3bf9586a	0.0076094167
140	0x3dca190f	0.09868061
141	0x3d7689e4	0.060190096
142	0x3d84343e	0.06455277
143	0x3d803230	0.062595725
144	0x3ca3e595	0.020006934
145	0xbc81408e	-0.015777852
146	0xbd04bddc	-0.032407627
147	0x3db38e52	0.0876738
148	0x3cf89199	0.030342864
149	0xbc9d1b54	-0.01917807
150	0xbd1060fd	-0.035248745
151	0x3d985fd7	0.07440155
152	0xbd5a86c3	-0.053351175
153	0x3db31e21	0.08745981
154	0x3d81981e	0.06327842
155	0xbd5b8a1e	-0.053598516
156	0xbd86e5a1	-0.06586767
157	0xbd415266	-0.047197722
158	0x3d80ea4b	0.06294688
159	0x3dd2fffe	0.10302733
160	0xbbf89c55	-0.0075869956
161	0x3b1d97fa	0.0024046884
162	0xbb08c312	-0.0020868224
163	0x3da558f9	0.08073611
164	0x3d82cf98	0.063872516
165	0xbcfca7d7	-0.030841751
166	0x3d10fff8	0.03540036
167	0x3d203494	0.039112642
168	0xbd861000	-0.065460205
169	0x3d83371b	0.06406995
170	0xbce9b24b	-0.0285274
171	0x3d31d49e	0.04341566
172	0xbc97b922	-0.018520895
173	0x3d62a03a	0.055328585
174	0x3d18605a	0.037201263
175	0x3d80cb6d	0.062888004
176	0x3d6d4558	0.05792746
177	0x3d2adca0	0.04171431
178	0x3ccc0c17	0.024908109
179	0xbd1760eb	-0.036957663
180	0x3bf4686e	0.007458738
181	0xbd0bacc1	-0.034100298
182	0x3c2e82f5	0.01065134
183	0x3d6eecd6	0.058331333
184	0x3d819eb4	0.06329098
185	0xbac060cd	-0.0014677286
186	0x3d899ca0	0.06719327
187	0xbd4c686a	-0.049904265
188	0x3d5bb7e2	0.05364216
189	0xbd4e9040	-0.050430536
190	0xbd859644	-0.065228015
191	0xbd604f8c	-0.05476336
192	0xbd3dedfd	-0.04636954
193	0xbd7e7194	-0.062120035
194	0xbcc87738	-0.02447091
195	0xbd193e8a	-0.037413158
196	0x3c43f8df	0.011961191
197	0xbd04bd34	-0.032407
198	0xbc8104db	-0.015749386
199	0xbd1bfe8c	-0.03808455
200	0x3cb270eb	0.02178236
201	0x3cea4a2b	0.02859982
202	0x3d4850ac	0.04890506
203	0x3d711bc5	0.058864374
204	0x3d56ef67	0.052474406
205	0x3d270a1e	0.040781133
206	0xbb9283dc	-0.0044712853
207	0xbd970244	-0.07373479
208	0x3d69734b	0.056994718
209	0xbd70be6b	-0.058775347
210	0xbda0b4f7	-0.07847016
211	0x3b6218ef	0.0034499725
212	0x3daedc5b	0.08538123
213	0x3d36102f	0.044449028
214	0x3c61132b	0.01373748
215	0x3d64f123	0.05589403
216	0x3dc3b6c4	0.09556344
217	0xbd900be5	-0.07033519
218	0xbcaa9f90	-0.020828038
219	0x3d953738	0.07285923
220	0x3d9de574	0.0770978
221	0x3db6c5ea	0.08924468
222	0x3bf56451	0.0074887653
223	0x3ced2aac	0.028951012
224	0x3c822112	0.01588491
225	0xbd95214b	-0.07281741
226	0xbd7f93ed	-0.062396932
227	0xbd047d80	-0.03234625
228	0x3d0b6cdf	0.034039374
229	0xbc288b4d	-0.010287118
230	0x3d8a0ea1	0.067410715
231	0xbd7f7193	-0.062364172
232	0xbd2c915e	-0.04213082
233	0x3db516e5	0.088422574
234	0xbd0610c0	-0.032730818
235	0xbc92a1af	-0.017899362
236	0x3da68770	0.081313014
237	0xbc1e5b5f	-0.009665339
238	0x3da457dd	0.08024571
239	0xbd9c7153	-0.076388024
240	0x3d58f3bc	0.05296682
241	0xbc92f4b7	-0.017938955
242	0xbd233c20	-0.03985226
243	0x3db2137c	0.086951226
244	0x3c771d43	0.01508266
245	0xbd47f8da	-0.048821308
246	0xbd891025	-0.066925324
247	0xbd0a9dde	-0.03384196
248	0x3da64bc3	0.08119919
249	0xbbdccff4	-0.006738657
250	0x3d5adfe7	0.053436186
251	0xbd8788ed	-0.066179134
252	0x3d49e92c	0.049294636
253	0x3c14e2bc	0.009087261
254	0x3d042b0c	0.032267615
255	0xbd2f0f5c	-0.042739257

fc2.bias f4 [64]
0	0xbdb1d747	-0.08683639
1	0xbd621572	-0.055196233
2	0x3d33a02c	0.043853924
3	0x3d50ca02	0.0509739
4	0x3d9a445d	0.075325705
5	0xbd4a61ab	-0.04940955
6	0x3a9b2682	0.0011837038
7	0x3be57b7e	0.007003247
8	0x3c279de4	0.010230515
9	0x3ca96d69	0.020682054
10	0xbd25c61b	-0.04047213
11	0x3c6c8b26	0.014437472
12	0xbd9de765	-0.07710151
13	0xbd0a9142	-0.033829935
14	0xbd97e3ae	-0.07416473
15	0x3cac5549	0.02103676
16	0x3bc35a44	0.0059616882
17	0xbd02f4a9	-0.031971607
18	0x3bcc3028	0.0062313266
19	0xbd24e87a	-0.04026077
20	0x3ca95436	0.020670038
21	0xbd64ba60	-0.055841804
22	0x3cb8fa0e	0.022580173
23	0xbc5f8a9d	-0.013643888
24	0xbdab1dd9	-0.08355302
25	0xbd85a111	-0.065248616
26	0xbd1343bb	-0.035953265
27	0xbd3b98c3	-0.04579998
28	0xbcf29b16	-0.029614966
29	0x3d46f83e	0.048576586
30	0xbb0f8187	-0.0021897273
31	0xbcd6d622	-0.026225153
32	0x3d612abe	0.054972403
33	0x3d4ea478	0.05044982
34	0xbdaf35ad	-0.0855516
35	0x3ae60946	0.0017550371
36	0xbc338f6a	-0.010959486
37	0xbccbd91f	-0.024883805
38	0x3dc28169	0.09497339
39	0xbd5be609	-0.053686175
40	0xbca427cc	-0.020038508
41	0x3da0f4a9	0.07859165
42	0x3cd3fca1	0.025877299
43	0x3d9c6a0f	0.076374166
44	0xbc41398a	-0.011793504
45	0x3baafb0a	0.0052179145
46	0x3b3212eb	0.002717192
47	0xbd0eddc2	-0.034879453
48	0x3d8ceb47	0.06880813
49	0xbda57383	-0.08078673
50	0x3d8a8202	0.06763078
51	0x3b8dd2b3	0.004328096
52	0xbd6951f0	-0.056962907
53	0x3cd9ba7e	0.026578184
54	0xbd95d4a2	-0.07315947
55	0xbbaa927f	-0.005205452
56	0x3d0aff7d	0.03393506
57	0xbdad5310	-0.084631085
58	0x3d531df5	0.05154224
59	0xbd8c980a	-0.06864937
60	0xbc0924e9	-0.0083706165
61	0x3d313f2e	0.043273143
62	0xbd2d73e4	-0.04234685
63	0x3b62432b	0.0034524899

actor.weight f4 [2, 64]
0	0xbdbb9d99	-0.09160919
1	0xbca8548c	-0.020548128
2	0xbdafe3c7	-0.08588367
3	0xbd75960b	-0.059957545
4	0x3c2378ca	0.009977529
5	0x3d33f2c6	0.0439327
6	0x3ced4832	0.02896509
7	0xbdca8804	-0.09889224
8	0x3ca97ff8	0.020690903
9	0x3db0ea45	0.08638433
10	0x3d3b47e0	0.045722842
11	0xbdc034f3	-0.09385099
12	0xbdd492fe	-0.10379599
13	0x3db480b8	0.08813614
14	0x3d2eda3b	0.04268859
15	0x3d574c46	0.052562974
16	0xbde9bcbc	-0.11412951
17	0x3b5bb440	0.0033524185
18	0xbd50d8be	-0.05098795
19	0x3d1a3824	0.037651196
20	0x3d018512	0.031621046
21	0xbdb1fb10	-0.086904645
22	0xbc2edea0	-0.010673195
23	0x3c3c7276	0.011501899
24	0xbbdd0e25	-0.006746071
25	0x3ca48a04	0.020085342
26	0x3c289220	0.010288745
27	0xbc62b608	-0.013837345
28	0x3d8e2ceb	0.06942161
29	0xbd8653bb	-0.06558939
30	0x3d40823a	0.046999194
31	0x3d917d72	0.07104005
32	0x3d2b89c0	0.041879416
33	0xbd53e307	-0.051730182
34	0x3a01ef00	0.0004956573
35	0x3d05933c	0.032611117
36	0x3de6c0c3	0.11267235
37	0xbd555b28	-0.052088886
38	0xbd3fb70b	-0.046805423
39	0xbd3bf0bc	-0.04588388
40	0x3bea2700	0.0071457624
41	0x3c1ab760	0.009443134
42	0x3de2a720	0.11067033
43	0x3d3879dc	0.04503809
44	0xbd8366ea	-0.06416114
45	0x3d4c479c	0.04987298
46	0xbd5741cb	-0.05255298
47	0x3dd97e56	0.106198
48	0x3b806703	0.00391853
49	0x3de63b9d	0.11241839
50	0xbdffc3e8	-0.12488538
51	0xbd9a7d37	-0.07543414
52	0x3d837ee7	0.06420689
53	0x3d531fc8	0.05154398
54	0xbd8ef592	-0.069804326
55	0xbda32bf2	-0.07967366
56	0xbddfa8ea	-0.1092089
57	0x3de41675	0.11137096
58	0x3d05241b	0.032505136
59	0x3d0c898b	0.03431086
60	0x3dbcb36f	0.09213912
61	0xbdf3a950	-0.11897528
62	0x3d93ba54	0.07213274
63	0xbdd4b32d	-0.103857376
64	0xbdf9fdb5	-0.12206594
65	0xbd7c9a6b	-0.061670702
66	0xbda5bdab	-0.08092817
67	0xbdd54ab7	-0.10414641
68	0x3da2cabc	0.07948825
69	0xbdbfdca6	-0.09368257
70	0x3db5ccfd	0.08876989
71	0x3d43c36d	0.047793794
72	0xbdb3e164	-0.08783224
73	0x3d048ff7	0.032363858
74	0xbddaafb1	-0.10678042
75	0xbd0edfa7	-0.03488126
76	0x3de550c8	0.111970484
77	0xbd37dfe8	-0.044891268
78	0x3ccac481	0.024751903
79	0x3de0fa0b	0.10985192
80	0xbcedb524	-0.029017039
81	0x3de7c538	0.11316913
82	0x3e043d48	0.12914002
83	0xbd119804	-0.035545364
84	0x3d077c09	0.033077274
85	0x3dd65a08	0.10466391
86	0x3dbdd7e0	0.092696905
87	0x3dbee5ca	0.093211725
88	0xbdd6bfb5	-0.10485784
89	0x3c904be5	0.017614314
90	0x3ce22168	0.02760382
91	0xbd7e8e0e	-0.062147193
92	0xbdd77d0b	-0.10521897
93	0x3d0fe048	0.035126
94	0x3c8375f7	0.016047461
95	0x3de8bce2	0.113641515
96	0xbcc3b7d4	-0.023891367
97	0x3d40ba57	0.047052708
98	0x3d0534e4	0.032521144
99	0x3d798840	0.060920954
100	0xbd96514b	-0.07339724
101	0x3dccca4a	0.09999521
102	0x3dd8e216	0.105899975
103	0x3c80ee72	0.0157387
104	0xbdd87c76	-0.10570614
105	0xbb68c980	-0.0035520494
106	0x3c38f2f6	0.011288395
107	0x3d8def44	0.06930402
108	0xbca19720	-0.019725382
109	0xbdd77c63	-0.10521772
110	0xbde17fee	-0.11010729
111	0x3d1737ab	0.036918323
112	0xbdde8132	-0.10864486
113	0x3df6b2e9	0.12045843
114	0x3d7e46a4	0.062079087
115	0x3da40e51	0.08010543
116	0x3dc8d4ab	0.09806188
117	0xbb69bb82	-0.0035664742
118	0xbd41a82c	-0.04727952
119	0x3db66f36	0.089079306
120	0x3d25b6db	0.040457588
121	0x3d84b337	0.06479495
122	0xbd94869c	-0.07252237
123	0xbdcaadc4	-0.098964244
124	0x3dc36bef	0.09542071
125	0xbd80f738	-0.06297153
126	0xbdbfa33c	-0.09357306
127	0x3da7eb9d	0.081992365

actor.bias f4 [2]
0	0xbc3bcc0d	-0.011462224
1	0x3d738e2e	0.059461765

critic.weight f4 [1, 64]
0	0x3d854eb6	0.065091535
1	0xbd5e358d	-0.05425029
2	0xbd976417	-0.073921375
3	0x3d056ab8	0.032572478
4	0xbd63d504	-0.05562307
5	0x3db008df	0.08595442
6	0x3de2fc07	0.11083227
7	0x3dd1bbcf	0.102409
8	0x3d930e6c	0.07180485
9	0xbdcea432	-0.100899115
10	0x3d6f2f65	0.05839481
11	0xbde71b1e	-0.11284469
12	0x3dd62c1e	0.104576334
13	0xbdea859c	-0.11451265
14	0xbda8e9cd	-0.08247719
15	0x3dd86687	0.105664305
16	0x3d25db66	0.040492438
17	0x3dcc8e42	0.09988071
18	0xbdef93d7	-0.1169812
19	0xbc2b70a7	-0.01046387
20	0xbdb491c0	-0.08816862
21	0x3c295780	0.010335803
22	0xbdb2bd90	-0.087275624
23	0xbcddf0a6	-0.02709229
24	0x3dc6d697	0.097088985
25	0x3db36621	0.08759714
26	0x3dcdd25c	0.100498885
27	0x3c0555ae	0.008138103
28	0x3daf4e83	0.08559897
29	0xbdc4e960	-0.09614825
30	0xbd37493a	-0.04474757
31	0xbe17c29d	-0.14820333
32	0xbdc60840	-0.09669542
33	0xbbd5f989	-0.006529991
34	0xbd8aef1c	-0.06783888
35	0x3dca9f9a	0.09893723
36	0xbdcd911f	-0.10037445
37	0x3cca56eb	0.024699649
38	0xbcc17b9d	-0.023618514
39	0xbc404f51	-0.0117376605
40	0xbc8d6e50	-0.017264515
41	0x3d3632e4	0.044482127
42	0x3b1aa270	0.0023595355
43	0xbd4635f7	-0.04839131
44	0xbe04a15d	-0.1295218
45	0xbdea144a	-0.11429651
46	0x3dc40001	0.09570313
47	0xbdd7b144	-0.105318576
48	0xbdf0d367	-0.11759072
49	0x3cbb6329	0.022874432
50	0xbd42bfe3	-0.04754628
51	0xbc158620	-0.009126216
52	0x3de72a97	0.1128742
53	0xbd6f97af	-0.058494266
54	0x3d31ba88	0.04339078
55	0xbd6098c8	-0.054833204
56	0xbd9b085c	-0.07569954
57	0x3de73f24	0.1129134
58	0x3db72ca2	0.0894406
59	0xbe0f3acd	-0.13987274
60	0xbdff3ffa	-0.124633744
61	0x3d04d2fd	0.032427777
62	0x3dc64d1c	0.09682676
63	0xbd90e6c4	-0.07075265
