warszawa/small/model.pth (torch, 27441 bytes, 7 tensors)

fc1.weight f4 [64, 26]
0.3919424 0.2505568 0.13276947 0.068688646 0.06474181 0.032336578 1.688174 -0.008038311
1.1739885 -0.13205686 1.8434014 -0.0064894445 0.24616334 0.0970615 0.7040182 0.05493392
2.4510777 0.3289248 2.0095499 0.006495944 1.6624063 -0.112885095 -0.16441219 1.144095
0.7456152 0.6738749 0.5658181 -0.06968286 0.10452192 -0.058216155 0.1737769 0.104280554
1.5265286 0.064787075 1.5290047 0.022436358 1.5728292 0.1686686 0.25452793 0.14497098
0.5940522 0.117904134 2.4711108 -0.006771552 2.354081 0.336306 1.7900039 -0.15921389
-0.079143904 1.2236955 0.50539047 0.6543236 0.47685817 0.18119912 0.11918235 0.083206035
0.33772293 0.14300646 1.7727504 0.2979999 1.4775472 0.15947904 1.5149119 0.1206615
0.32539552 0.13655101 0.63885784 -0.1311713 2.5072658 0.26148167 2.0395064 0.28418666
1.7384031 -0.069955304 -0.03456796 1.0801725 0.7461312 0.5765228 0.37686303 0.13143532
0.14180613 -0.05079519 0.30140063 0.08381183 1.7951667 0.31816882 1.2682489 0.1358539
1.6541723 0.21560858 0.3521853 -0.07421024 0.591226 -0.060345042 2.6738756 0.1837082
2.3156338 0.28284523 1.8043435 -0.020151656 -0.4404924 1.1121511 0.5955314 0.4680457
0.7060741 0.2952398 -0.054623783 -0.06203902 0.37679094 0.16400021 1.8086982 0.07114267
1.3332111 -0.073349215 1.6635278 0.08176987 0.44999892 0.13112935 0.64835167 0.16918883
2.5698767 0.1836396 2.3156455 0.11516591 1.6359946 0.21068124 -0.047149878 1.1942923
0.69238037 0.58828217 0.21753362 0.23365666 0.1708399 -0.08308299 0.098197676 0.09916324
1.8479147 0.054012533 1.2169491 0.009362611 1.5890496 0.20563713 0.46757954 -0.118311234
0.42171496 -0.23293653 2.282779 0.2710085 2.219442 0.09460475 1.5847352 -0.16360949
-0.15891403 1.1482601 0.5715569 0.5870752 0.5988444 0.2303994 0.09375189 0.03488232
0.31580877 0.21404043 1.7429188 0.24070825 1.2289672 -0.1521159 1.8532043 0.22917508
0.5527706 -0.09768061 0.50361836 -0.16912718 2.6199 0.26773372 2.120837 0.12740183
1.5684551 0.016949568 -0.14616893 1.0600022 0.75600445 0.6706602 0.48240066 0.17087415
0.030579906 -0.074431315 0.11589546 0.3044572 1.6701393 0.02809439 1.1702402 0.12067108
1.7752622 0.002984094 0.47237486 -0.12994754 0.5896243 0.14244255 2.268069 0.26139152
2.1937232 0.1895859 1.5499773 0.21337236 -0.3420075 1.1751956 0.59489846 0.70052415
0.33825183 -0.31605795 0.11998195 0.0632572 -0.13143909 -0.2252948 1.7770376 0.054111514
1.635012 0.19704369 1.5944597 -0.001900972 0.11396548 -0.49263498 0.12511063 -0.27654496
2.6563973 -0.11996142 2.4266953 0.22477715 1.773746 0.024145147 -0.59069663 1.5540444
0.499679 0.19504303 0.68887717 0.034261163 0.08169695 0.12512055 0.24356551 -0.020981885
1.7554791 -0.034828342 1.4836123 -0.048199635 1.960406 0.30262205 0.69721806 0.11048008
0.6382631 -0.14762023 2.7118828 0.2026248 2.3932147 0.36455318 1.7450435 0.27313387
00000000: adac c83e fb48 803e b8f4 073e a2ac 8c3d
00000010: 5b97 843d 5c73 043d 1616 d83f 1fb3 03bc
00000020: 4145 963f ea39 07be 94f4 eb3f 68a5 d4bb
00000030: 3e12 7c3e 2ec8 c63d 893a 343f 6402 613d
00000040: 75de 1c40 d568 a83e 779c 0040 eedb d43b
00000050: bbc9 d43f 4d30 e7bd ab5b 28be b471 923f
00000060: a3e0 3e3f 1183 2c3f 74d9 103f e3b5 8ebd
00000070: 970f d63d 1074 6ebd 92f2 313e 0b91 d53d
00000080: 4a65 c33f 16af 843d 6db6 c33f 74cc b73c
00000090: 7852 c93f 76b7 2c3e 7c51 823e 4673 143e
000000a0: ce13 183f b977 f13d ae26 1e40 e5e3 ddbb
000000b0: 43a9 1640 4d30 ac3e d91e e53f f708 23be
000000c0: 3316 a2bd 0ea2 9c3f 4561 013f c081 273f
000000d0: c126 f43e 438c 393e e015 f43d ed67 aa3d
000000e0: 05ea ac3e 4970 123e 7ce9 e23f 7193 983e
000000f0: 4420 bd3f 794e 233e a2e8 c13f 601d f73d
00000100: 3e9a a63e 07d4 0b3e 308c 233f c551 06be
00000110: 0b77 2040 ede0 853e 4687 0240 ea80 913e
00000120: fe83 de3f ba44 8fbd 2297 0dbd 1843 8a3f
00000130: 7402 3f3f 0097 133f 31f4 c03e fb96 063e
00000140: a035 113e 9e0e 50bd 2f51 9a3e 89a5 ab3d
00000150: 06c8 e53f 06e7 a23e fb55 a23f 491d 0b3e
00000160: ebbb d33f 7fc8 5c3e a251 b43e 8afb 97bd
00000170: 965a 173f 5d2c 77bd c720 2b40 011e 3c3e
00000180: 5833 1440 17d1 903e baf4 e63f 1615 a5bc
00000190: 3888 e1be f85a 8e3f bf74 183f b0a3 ef3e
000001a0: 46c1 343f ac29 973e 30bd 5fbd a11c 7ebd
000001b0: beea c03e acef 273e 6c83 e73f 40b3 913d
000001c0: a9a6 aa3f 1d38 96bd 7bee d43f f676 a73d
000001d0: 4266 e63e c646 063e 60fa 253f d63f 2d3e
000001e0: dc78 2440 050c 3c3e 8933 1440 1bdc eb3d
000001f0: 4568 d13f d3bc 573e 3b20 41bd 92de 983f
00000200: d73f 313f a999 163f 22c1 5e3e b143 6f3e
00000210: a8f0 2e3e 6a27 aabd dd1b c93d 1916 cb3d
00000220: 7888 ec3f 3f3c 5d3d fdc4 9b3f a365 193c
00000230: fa65 cb3f 8a92 523e 9666 ef3e 294d f2bd
00000240: 06eb d73e ea86 6ebe 0d19 1240 a0c1 8a3e
00000250: 560b 0e40 23c0 c13d 9ad8 ca3f 3f89 27be
00000260: 5cba 22be 30fa 923f 8e51 123f 8f4a 163f
00000270: de4d 193f d2ed 6b3e fe00 c03d c3e0 0e3d
00000280: b0b1 a13e 6a2d 5b3e f717 df3f 397c 763e
00000290: cc4e 9d3f 45c4 1bbe cc35 ed3f dfac 6a3e
000002a0: 6082 0d3f c60c c8bd 22ed 003f ad2f 2dbe
000002b0: 71ac 2740 6514 893e cbbb 0740 a075 023e
000002c0: 23c3 c83f d2d9 8a3c 4fad 15be 27ae 873f
000002d0: 8289 413f 63b0 2b3f 38fd f63e a2f9 2e3e
000002e0: b682 fa3c 726f 98bd 995a ed3d d0e1 9b3e
000002f0: 20c7 d53f 3526 e63c 6eca 953f 6622 f73d
00000300: cb3b e33f ca90 433b 1edb f13e f810 05be
00000310: 9ef1 163f 76dc 113e 0b28 1140 1cd5 853e
00000320: f665 0c40 ce22 423e a865 c63f 497e 5a3e
00000330: 9b1b afbe cf6c 963f 444b 183f 8d55 333f
00000340: 582f ad3e 59d2 a1be 19b9 f53d fe8c 813d
00000350: f897 06be aeb3 66be f875 e33f 09a4 5d3d
00000360: 1348 d13f d2c5 493e 4117 cc3f 092a f9ba
00000370: bc66 e93d a73a fcbe 001d 003e 4d97 8dbe
00000380: 6a02 2a40 55ae f5bd fa4e 1b40 fb2b 663e
00000390: 1c0a e33f 0bcc c53c e537 17bf edea c63f
000003a0: edd5 ff3e 5cb9 473e 415a 303f 6f55 0c3d
000003b0: bb50 a73d 9a1f 003e 3d69 793e 34e2 abbc
000003c0: 8ab3 e03f 2aa8 0ebd 02e7 bd3f fb6c 45bd
000003d0: 95ee fa3f 47f1 9a3e e27c 323f 6143 e23d
000003e0: 3665 233f c229 17be 7d8f 2d40 e07c 4f3e
000003f0: 6e2a 1940 b7a6 ba3e 965d df3f 34d8 8b3e

fc1.bias f4 [64]
0.6305486 0.67821413 0.6306385 0.7137377 0.46309704 0.707356 0.63092095 0.70225525
0.6408008 0.6389155 0.47960994 0.64835495 0.67358696 0.64392346 0.6332631 0.59892434
0.7607066 0.5636705 0.7437554 0.61185455 0.49406347 0.5291102 0.60909456 0.6334712
0.6723713 0.6229469 0.6757354 0.5036067 0.6125925 0.633222 0.5253692 0.50067925
0.53964 0.7389654 0.6635088 0.64853877 0.58972734 0.6769115 0.44829625 0.7572101
0.6806525 0.58252627 0.69655746 0.5973206 1.0291855 0.6654942 0.5957268 0.5805248
0.51680106 0.55550677 0.93791825 0.6461943 0.68663305 0.5020299 0.5674484 0.6943321
0.57033 0.7262475 0.6878786 0.56625205 0.520916 0.5568869 0.6569476 0.67369497
00000000: a26b 213f 719f 2d3f 8671 213f 84b7 363f
00000010: 0e1b ed3e 4815 353f 0984 213f 00c7 333f
00000020: 850b 243f f78f 233f 6f8f f53e 97fa 253f
00000030: 3270 2c3f 2bd8 243f 881d 223f 1b53 193f
00000040: abbd 423f b64c 103f c166 3e3f 80a2 1c3f
00000050: e3f5 fc3e c473 073f 9fed 1b3f 2b2b 223f
00000060: 8720 2c3f 7379 1f3f fffc 2c3f 5eec 003f
00000070: ddd2 1c3f d61a 223f 997e 063f 842c 003f
00000080: d925 0a3f d62c 3d3f b6db 293f a306 263f
00000090: 5ff8 163f 124a 2d3f 1687 e53e 85d8 413f
000000a0: 3e3f 2e3f 7120 153f 9751 323f 01ea 183f
000000b0: 5abc 833f d45d 2a3f 8d81 183f 469d 143f
000000c0: 134d 043f b135 0e3f 691b 703f fd6c 253f
000000d0: 2fc7 2f3f 0885 003f 4c44 113f c0bf 313f
000000e0: 2601 123f 5beb 393f d018 303f e5f5 103f
000000f0: c05a 053f 2490 0e3f b82d 283f 4677 2c3f

fc2.weight f4 [64, 64]
0.339273 0.46609423 0.44240463 0.5744888 0.42496026 0.31450108 0.4298188 0.46220434
0.6130266 0.48174453 0.5671626 0.5792899 0.4470224 0.5507491 0.53969175 0.50685215
0.30513468 0.5442134 0.4627531 0.50216234 0.7062954 0.39885405 0.59127796 0.3689386
0.382081 0.3433031 0.5288064 0.6369372 0.60246855 0.4579664 0.829439 0.75815344
0.35437644 0.4527071 0.48869768 0.5834628 0.51618564 0.51096594 0.34509194 0.3245913
0.33303896 0.3913537 0.31700826 0.46924302 1.1056488 0.43653336 0.34167674 0.33650115
0.7472878 0.5543798 0.88160133 0.86329454 0.37302268 0.33698976 0.61075747 0.36984703
0.5839755 0.38036448 0.41893855 0.56750137 0.49642164 0.74701077 0.50123894 0.66450053
0.38855132 0.38513872 0.2879231 0.57654715 0.3713965 0.35490263 0.31887347 0.27173632
0.5273986 0.281365 0.41311285 0.41362393 0.3665916 0.23537892 0.44922096 0.37511712
0.27814683 0.36433136 0.3694262 0.46116975 0.5580911 0.4257093 0.54348886 0.37401402
0.43458682 0.30512428 0.43025142 0.34446585 0.5695554 0.24740274 0.5518854 0.7369534
0.42521223 0.24615593 0.24471532 0.47716042 0.39634085 0.42615315 0.32130066 0.28145364
0.28237057 0.3773623 0.22367579 0.30643752 1.0687872 0.36796093 0.31916866 0.3558966
0.54959124 0.49059567 0.9823799 0.8188014 0.43030417 0.41468892 0.4489125 0.43593267
0.4451597 0.48642585 0.20349306 0.3786003 0.4308125 0.72934353 0.32959685 0.7300349
0.008107915 -0.083269976 0.085881956 0.01753738 -0.0027467634 -0.0115030445 -0.14459088 -0.02988751
0.013857652 -0.10744518 -0.10850266 -0.039927367 0.023379201 0.056205478 -0.08112235 0.055188477
-0.056720335 -0.012943035 0.04929246 0.04808241 0.07697494 -0.026007479 -0.034528736 0.003665732
-0.03913992 -0.14784385 -0.10080347 -0.16129194 -0.09425163 -0.07325055 0.002115175 0.09402546
0.07469984 -0.10725475 0.06220925 0.03202652 -0.13137437 -0.06849795 0.010608304 -0.11754293
-0.07588107 -0.10345543 0.008323184 -0.017017946 0.06733908 -0.07514108 -0.026010921 -0.036959775
0.093246706 -0.023678051 -0.07450397 0.011194233 -0.060518842 -0.069404125 -0.057453733 -0.13129368
-0.07953533 -0.0067563537 -0.078312516 -0.14439097 -0.10143101 -0.075552955 0.054766797 -0.058869302
0.25843576 0.33983764 0.45588514 0.43066603 0.44217157 0.39201123 0.3797805 0.25644884
0.47892535 0.47950134 0.32378086 0.47195363 0.2930595 0.44819134 0.44353428 0.37485424
0.2566339 0.4581883 0.26502073 0.40285048 0.64437014 0.45190325 0.4365477 0.48615777
0.5380208 0.31368783 0.34960213 0.4480621 0.6295047 0.3268774 0.59799564 0.95003444
0.4399626 0.3737042 0.2128282 0.4436679 0.29790476 0.3176058 0.33775848 0.39009643
0.2413209 0.42020127 0.38795117 0.4796693 0.9881854 0.37170476 0.39071384 0.47442588
0.59860206 0.6880769 0.980713 0.7888573 0.4784126 0.4649491 0.37488472 0.5035298
0.43324533 0.31712806 0.24363047 0.31835446 0.48830098 0.7214385 0.5001836 0.6566547
00000000: 31b5 ad3e e7a3 ee3e dc82 e23e b311 133f
00000010: 6494 d93e 4906 a13e 3611 dc3e 0ca6 ec3e
00000020: 50ef 1c3f 38a7 f63e 9131 113f 584c 143f
00000030: 1fe0 e43e e5fd 0c3f 3d29 0a3f 10c1 013f
00000040: 9d3a 9c3e 9251 0b3f f9ed ec3e b68d 003f
00000050: c6cf 343f 9936 cc3e fe5d 173f 85e5 bc3e
00000060: 1fa0 c33e 6dc5 af3e db5f 073f 510e 233f
00000070: 613b 1a3f 927a ea3e 1d56 543f 5816 423f
00000080: d470 b53e 3ac9 e73e 9536 fa3e d15d 153f
00000090: be24 043f aace 023f e4af b03e d530 a63e
000000a0: 1584 aa3e 835f c83e e84e a23e 9f40 f03e
000000b0: e685 8d3f 4d81 df3e 41f0 ae3e e149 ac3e
000000c0: 414e 3f3f d6eb 0d3f a0b0 613f df00 5d3f
000000d0: d4fc be3e ec89 ac3e 9a5a 1c3f 975c bd3e
000000e0: 6b7f 153f 22bf c23e 1d7f d63e c547 113f
000000f0: fa2a fe3e 193c 3f3f 3251 003f b51c 2a3f
00000100: 33f0 c63e e730 c53e a86a 933e 9898 133f
00000110: af27 be3e ccb5 b53e 6243 a33e 0621 8b3e
00000120: 9803 073f 130f 903e 8783 d33e 84c6 d33e
00000130: e5b1 bb3e 2c07 713e 4a00 e63e 5a0f c03e
00000140: 4369 8e3e a489 ba3e 6e25 bd3e 711e ec3e
00000150: 0fdf 0e3f 92f6 d93e 1622 0b3f c47e bf3e
00000160: 2a82 de3e 4039 9c3e ea49 dc3e d45d b03e
00000170: 62ce 113f 2557 7d3e 5d48 0d3f faa8 3c3f
00000180: 6bb5 d93e 4d10 7c3e a796 7a3e 5f4e f43e
00000190: 30ed ca3e bf30 da3e 8581 a43e b11a 903e
000001a0: e092 903e a235 c13e 440b 653e 61e5 9c3e
000001b0: 05ce 883f 6065 bc3e 136a a33e 1438 b63e
000001c0: 03b2 0c3f 5b2f fb3e 407d 7b3f f89c 513f
000001d0: d450 dc3e 1b52 d43e dcd7 e53e 9132 df3e
000001e0: f9eb e33e cf0c f93e 7c60 503e e6d7 c13e
000001f0: 7593 dc3e 42b6 3a3f ebc0 a83e 91e3 3a3f
00000200: 0fd7 043c 7389 aabd e1e2 af3d 8daa 8f3c
00000210: 0b03 34bb 4477 3cbc a20f 14be a7d6 f4bc
00000220: 350b 633c 380c dcbd a536 debd e18a 23bd
00000230: bd85 bf3c b737 663d 7a23 a6bd 500d 623d
00000240: 9553 68bd 060f 54bc e4e6 493d 10f2 443d
00000250: 0aa5 9d3d a30d d5bc 016e 0dbd c73c 703b
00000260: 2e51 20bd 6164 17be 0d72 cebd b729 25be
00000270: 0007 c1bd 6204 96bd bf9e 0a3b 6c90 c03d
00000280: 3bfc 983d 61a8 dbbd 20cf 7e3d 3e2e 033d
00000290: 0187 06be a748 8cbd 74ce 2d3c 59ba f0bd
000002a0: 8967 9bbd 71e0 d3bd f75d 083c 3869 8bbc
000002b0: 12e9 893d 91e3 99bd db14 d5bc 2263 17bd
000002c0: 21f8 be3d 79f8 c1bc 8a95 98bd 0468 373c
000002d0: 9be2 77bd c023 8ebd 9b54 6bbd da71 06be
000002e0: 6be3 a2bd 6764 ddbb 5062 a0bd 3adb 13be
000002f0: 10bb cfbd 82bb 9abd 2653 603d f020 71bd
00000300: b151 843e 33ff ad3e c769 e93e 4280 dc3e
00000310: 5064 e23e b2b5 c83e 9772 c23e 434d 833e
00000320: b435 f53e 3381 f53e 9bc6 a53e e8a3 f13e
00000330: e50b 963e 5679 e53e ed16 e33e e5ec bf3e
00000340: 8565 833e a897 ea3e ccb0 873e 6b42 ce3e
00000350: 71f5 243f dd5f e73e 2e83 df3e ace9 f83e
00000360: bbbb 093f b19b a03e 0dff b23e 6568 e53e
00000370: 3827 213f 795c a73e 3e16 193f 7535 733f
00000380: c742 e13e 2856 bf3e a3ef 593e 7028 e33e
00000390: f986 983e 3a9d a23e aeee ac3e b8ba c73e
000003a0: d31c 773e 9f24 d73e 89a1 c63e 3797 f53e
000003b0: b8f9 7c3f 1650 be3e a50b c83e f3e7 f23e
000003c0: fc3d 193f cf25 303f 0210 7b3f 8df2 493f
000003d0: 7ff2 f43e cf0d ee3e e4f0 bf3e 54e7 003f
000003e0: 55d2 dd3e 9c5e a23e 447a 793e 5bff a23e
000003f0: 9602 fa3e 32b0 383f 080c 003f 861a 283f

fc2.bias f4 [64]
0.49015328 0.33608142 -0.040404096 0.45139587 -0.013242155 -0.04037374 0.5866415 0.03834096
0.50335974 -0.054086834 0.4204533 0.1099444 0.030920396 0.52007645 -0.07241513 -0.07542424
0.02172111 0.488484 -0.052823387 -0.12547152 -0.016494524 -0.10807027 -0.06641359 -0.017012086
-0.09535875 0.4394991 -0.024726104 0.034998804 -0.04734999 -0.046553522 0.4356802 0.60982496
0.38202143 -0.018787786 0.43991274 0.49631795 0.43424436 -0.08562828 0.062420636 -0.08185343
0.46157852 -0.12095258 0.5033519 -0.061638683 0.024461301 -0.058570433 0.46235237 -0.03189993
0.091821685 0.53475 0.022501513 -0.11815728 0.42112008 0.020987341 0.4959547 0.46774098
0.017887972 0.5908981 0.51849973 -0.1347274 -0.057965547 0.44861743 -0.13533081 0.03852013
00000000: 5ff5 fa3e dd12 ac3e c47e 25bd 5c1d e73e
00000010: a0f5 58bc ef5e 25bd 232e 163f 690b 1d3d
00000020: 2fdc 003f 288a 5dbd a845 d73e 882a e13d
00000030: c54c fd3c bb23 053f 624e 94bd 0678 9abd
00000040: 78f0 b13c 931a fa3e 565d 58bd 9b7b 00be
00000050: 861f 87bc f253 ddbd d903 88bd ee5c 8bbc
00000060: 734b c3bd 0706 e13e 668e cabc e85a 0f3d
00000070: 10f2 41bd e8ae 3ebd 7a11 df3e 7d1d 1c3f
00000080: 5098 c33e d8e8 99bc 3e3c e13e 631d fe3e
00000090: 4755 de3e e15d afbd c8ac 7f3d c5a2 a7bd
000000a0: 0554 ec3e fcb5 f7bd acdb 003f d878 7cbd
000000b0: 1163 c83c 8de7 6fbd 73b9 ec3e 80a9 02bd
000000c0: 020d bc3d 60e5 083f 1855 b83c 72fc f1bd
000000d0: 0d9d d73e a5ed ab3c c6ed fd3e bf7b ef3e
000000e0: cc89 923c 1945 173f 66bc 043f fbf5 09be
000000f0: 486d 6dbd 2fb1 e53e 2994 0abe 49c7 1d3d

actor.weight f4 [2, 64]
0.1241406 0.108392894 -0.017219866 0.14401482 -0.06871703 -0.06750474 -0.02516203 -0.064057186
0.06344466 0.0007416457 0.046823096 -0.053181678 -0.042215418 -0.0026575793 -0.040476516 0.013585433
-0.073364586 -0.057754785 0.08924265 0.047922697 -0.04404382 -0.013349161 -0.07779076 -0.038447592
0.08793235 -0.008439326 0.050867867 -0.056071147 -0.08120248 -0.047999144 0.05298332 -0.02107498
0.17322522 -0.056123227 0.13462418 0.022414066 0.17288536 -0.0017874837 -0.052161075 0.06976062
0.076570585 0.07321 0.19400445 0.035705224 0.029006949 -0.006977752 0.025355363 -0.122244835
-0.059595715 -0.014838397 0.023413718 -0.051374078 -0.010839684 0.06193112 0.059526566 0.04293801
-0.11672642 0.1433207 0.10987213 -0.048372462 0.011748483 0.19358218 0.07822573 -0.024739115
-0.010268112 -0.16365364 0.015650088 0.048411157 -0.1090744 -0.015581788 -0.19144005 0.0044849664
-0.0103137195 -0.008278817 0.019799665 -0.02250968 -0.014438606 -0.12361796 -0.10481724 -0.09176323
0.0976592 -0.0008832594 -0.16447067 0.0992981 -0.094047174 0.087942615 -0.08793291 -0.013679043
-0.059870403 -0.051741924 -0.02531127 0.09003029 0.064743906 -0.08068927 0.026269475 -0.15309909
-0.159496 -0.014088169 0.03886367 -0.078759596 -0.009340344 -0.08278817 0.09660838 0.07590939
-1.1245664e-06 0.10409887 -0.10836461 0.015408256 -0.12708478 -0.04201083 -0.16885608 0.021903157
-0.025726117 -0.04229557 -0.07430644 0.10818559 -0.066564955 0.11580986 -0.13452235 -0.06340174
0.023114314 -0.29727843 -0.12581287 -0.106446 -0.028821155 -0.17629552 -0.06525655 0.09076967
00000000: 6d3d fe3d 18fd dd3d ad10 8dbc 9f78 133e
00000010: 84bb 8cbd ed3f 8abd 9a20 cebc 6a30 83bd
00000020: 46ef 813d 006b 423a 93c9 3f3d 08d5 59bd
00000030: 13ea 2cbd c82a 2ebb b4ca 25bd 7095 5e3c
00000040: 2c40 96bd 4890 6cbd dac4 b63d 974a 443d
00000050: 4b67 34bd 70b6 5abc c350 9fbd 397b 1dbd
00000060: e015 b43d 1945 0abc d35a 503d dcaa 65bd
00000070: 7c4d a6bd c09a 44bd 0a05 593d 70a5 acbc
00000080: f461 313e 78e1 65bd ecda 093e b49d b73c
00000090: dc08 313e 004a eaba daa6 55bd a8de 8e3d
000000a0: 0ad1 9c3d 20ef 953d 1aa9 463e a43f 123d
000000b0: fb9f ed3c a0a5 e4bb 0db6 cf3c 805b fabd
000000c0: a31a 74bd bf1c 73bc 20ce bf3c a06d 52bd
000000d0: ee98 31bc 7cab 7d3d 21d2 733d c4df 2f3d
000000e0: 430e efbd a9c2 123e a404 e13d 3422 46bd
000000f0: b67c 403c 683a 463e d034 a03d afa9 cabc
00000100: 953b 28bc d294 27be 9d34 803c c74a 463d
00000110: 6662 dfbd c14a 7fbc dc08 44be a0f6 923b
00000120: e0fa 28bc e0a3 07bc e832 a23c 3866 b8bc
00000130: e78f 6cbc 6a2b fdbd 6caa d6bd 5cee bbbd
00000140: 8c01 c83d 898a 67ba 006b 28be cd5c cb3d
00000150: ce9b c0bd 421b b43d 2b16 b4bd 111e 60bc
00000160: ab3a 75bd 57ef 53bd 9559 cfbc cd61 b83d
00000170: 7498 843d 6a40 a5bd 1533 d73c 02c6 1cbe
00000180: eb52 23be 10d2 66bc 832f 1f3d b64c a1bd
00000190: 3e08 19bc d88c a9bd 9dda c53d 6276 9b3d
000001a0: cfef 96b5 ca31 d53d 44ee ddbd e972 7c3c
000001b0: 8322 02be 8c13 2cbd 9ce8 2cbe 406e b33c
000001c0: 94bf d2bc 1f3e 2dbd fa2d 98bd 6890 dd3d
000001d0: 3553 88bd b82d ed3d 3ac0 09be c5d8 81bd
000001e0: 3b5a bd3c e134 98be 17d5 00be 5c00 dabd
000001f0: 581a ecbc d086 34be 3aa5 85bd 73e5 b93d

actor.bias f4 [2]
-0.026356021 -0.013562494
00000000: 95e8 d7bc 3935 5ebc

critic.weight f4 [1, 64]
-0.5700798 -0.61920047 0.021936601 -0.5852643 -0.09538813 0.0062497878 -0.5407507 -0.08201075
-0.5395843 -0.0046919584 -0.70940113 0.10386628 0.05726066 -0.54869956 -0.0937503 -0.009718016
-0.03241381 -0.63040155 0.056806624 -0.023029001 0.10224297 0.09893608 0.05706877 0.0531165
0.03154397 -0.6541915 0.030962711 0.079652995 0.06905401 -0.066579625 -0.6719651 -0.5179711
-0.5938993 0.03981404 -0.69911057 -0.5672385 -0.57409024 0.05887105 0.08319443 0.097085156
-0.6273881 -0.10415472 -0.58768934 0.05095282 0.10640011 -0.035425078 -0.572136 -0.07844584
0.09708063 -0.5634919 0.096496016 0.022802545 -0.61675864 0.006920091 -0.58234566 -0.55958056
0.082046725 -0.6971245 -0.5314482 -0.0016770454 0.09970445 -0.5364093 0.016798697 0.06579756
00000000: c0f0 11bf ec83 1ebf 63b4 b33c e2d3 15bf
00000010: da5a c3bd 05cb cc3b a36e 0abf 41f5 a7bd
00000020: 3222 0abf 00bf 99bb 509b 35bf d8b7 d43d
00000030: 278a 6a3d 9377 0cbf 2800 c0bd 5038 1fbc
00000040: 58c4 04bd ff61 21bf 10ae 683d 51a7 bcbc
00000050: c364 d13d 009f ca3d f1c0 693d b090 593d
00000060: 4034 013d 1879 27bf 83a5 fd3c 1c21 a33d
00000070: 306c 8d3d e65a 88bd e805 2cbf c199 04bf
00000080: c909 18bf 0c14 233d e9f8 32bf 8b36 11bf
00000090: 94f7 12bf c522 713d d761 aa3d 95d4 c63d
000000a0: 829c 20bf 124f d5bd cf72 16bf e7b3 503d
000000b0: 4de8 d93d e319 11bd 8177 12bf 36a8 a0bd
000000c0: 36d2 c63d 0141 10bf b49f c53d 67cc ba3c
000000d0: e5e3 1dbf eec1 e23b 9b14 15bf ac40 0fbf
000000e0: 1d08 a83d c076 32bf fd0c 08bf 4ed0 dbba
000000f0: d931 cc3d 1f52 09bf 6c9d 893c dfc0 863d
